CSJ.pth (torch, 8015 bytes, 7 tensors)

weight_ih_l0 f4 [36, 6]
000000 06 e4 4f 3d aa 5d 5c 3e aa 9e 94 3d 87 12 01 3e
       0.05075457 0.21520105 0.07256825 0.12604724
000010 31 eb 2a 3d 69 21 96 be 3e c0 a1 be 79 cc 5f 3e
       0.041728202 -0.29322365 -0.31591982 0.21855344
000020 3d cc 45 3e 4b 6e 22 3d 01 ef ae be 6f 34 46 be
       0.19316192 0.039655965 -0.3416672 -0.1935594
000030 8f 79 ba bd 2e 4c 61 3e 1e e6 8f be 1b 77 af 3d
       -0.09105217 0.22001716 -0.28105253 0.085676394
000040 79 4a 15 3e 7e a0 eb 3a c4 e7 27 bd 2a e3 64 bd
       0.1457919 0.0017976908 -0.040992513 -0.055880703
000050 75 ca ca 3c 6d ee e1 3d c9 8f 88 3e b4 4b 69 be
       0.024754742 0.11031804 0.266722 -0.22782785
000060 a2 95 ae 3d 36 6a 79 be d3 10 0f be 4c 91 14 3e
       0.08524634 -0.24356923 -0.13971262 0.14508551
000070 52 f4 9b be bd 6b 2f be 04 23 03 3e 0c a2 43 be
       -0.3045984 -0.17130943 0.12806326 -0.19104785
000080 4f 09 d4 bd 17 81 a4 3d 7c 7e 16 be 76 d6 8a bd
       -0.10353338 0.080324344 -0.14696687 -0.067791864
000090 19 6d 8d 3e 30 3a 16 3c 80 24 0d be 07 4d a2 3d
       0.27622297 0.009169146 -0.13783455 0.07924848
0000a0 e6 05 68 3e dd 3f 53 be d0 c8 d5 bc f8 1e fd bd
       0.226585 -0.2062983 -0.026096731 -0.123594224
0000b0 bb cf ef 3d 7f c5 13 bd 48 75 80 3d 14 bb f1 bd
       0.11709543 -0.03607702 0.062723696 -0.118032604
0000c0 7b 3c d9 3d ba 5e 91 be b5 b1 05 3e d6 d5 e4 3d
       0.10607239 -0.28392583 0.13056071 0.111735985
0000d0 19 b3 06 be dd f7 c6 3d 3c ac a2 3d e8 75 c1 bb
       -0.13154258 0.09715245 0.07943007 -0.005903948
0000e0 16 3b 68 3e e8 3e 3a be 2f 5d 24 bd 3f e1 ec bd
       0.2267879 -0.1818806 -0.04012793 -0.115664
0000f0 77 fb af 3d 12 93 7b 3d 77 34 2b 3e dd b5 4f bd
       0.08592885 0.061419554 0.16719232 -0.050710548
000100 87 f4 5d 3e 20 ff 8f be c7 56 da 3c 05 7e c1 bd
       0.21675311 -0.28124332 0.026652707 -0.094478644
000110 97 ae c8 3d 13 92 96 3e 06 72 33 be ac 9e 5b be
       0.09798925 0.2940832 -0.17523965 -0.21447247
000120 b4 ab 0c 3d b4 9d 04 be a4 05 1d be 70 e8 bb be
       0.034343436 -0.12950784 -0.15334183 -0.36700773
000130 4a 0d c5 be 0f 58 57 be 01 50 df be eb 1b 7c bd
       -0.384867 -0.21029685 -0.43615726 -0.061550062
000140 52 b4 20 3d ee 2e 6e be 73 f3 d2 be 36 a0 f9 bd
       0.039234467 -0.2326009 -0.41201362 -0.12188761
000150 fa 06 52 3d cb 10 2d 3e dd 38 c8 be 75 2f 63 be
       0.051276185 0.16900937 -0.39105883 -0.22186072
000160 86 a8 36 3d 25 34 07 be 0c 80 44 bc df e8 a2 3e
       0.04459431 -0.13203485 -0.011993419 0.31818292
000170 77 00 a1 3d b2 18 45 3e b3 35 50 be 91 99 7e 3e
       0.07861417 0.19247702 -0.20332985 0.24863268
000180 e3 cf b5 3e c2 87 42 3e 6b a6 3d 3d 0c f4 43 3e
       0.35510167 0.189971 0.046301287 0.19136065
000190 33 23 19 3e db 3a a3 3e 50 37 e0 3e 83 94 98 3e
       0.14954834 0.3188084 0.437922 0.29800805
0001a0 96 07 63 3e c3 ae e8 3d 6e 65 c1 3e 26 64 79 bd
       0.22170863 0.11361458 0.37772697 -0.060886525
0001b0 56 7e e4 bd ee 8f 15 be fd f5 51 bb 36 2d 61 3b
       -0.11156909 -0.14605686 -0.003203749 0.0034359223
0001c0 64 c8 c4 be cc b5 3e 3c 7f ff 55 be 9e da 17 3e
       -0.38434136 0.011640023 -0.20898245 0.1482949
0001d0 a9 8b 4a bd 94 a7 2b bd 6a 95 12 bb 2d 05 be be
       -0.049449597 -0.04190786 -0.002236689 -0.37113324
0001e0 36 86 76 be e4 fc 4e 3e 30 e4 83 be 8d e2 8c 3e
       -0.24074635 0.20213658 -0.2576003 0.27516595
0001f0 88 c8 84 3e 8d 2f 3e 3e c8 dd ca bd 2d 53 b7 3d
       0.25934243 0.18572827 -0.09905583 0.089514114
000200 5f 8a 2f be 46 9a ae bc bc dc 73 bd c1 17 6c 3e
       -0.17142628 -0.021313798 -0.05953668 0.23055936
000210 f8 6a 27 be 68 67 17 be f2 10 90 be 1d a2 99 be
       -0.16349399 -0.1478554 -0.28137928 -0.30006495
000220 d2 5d 1c bb b1 40 02 3e 44 34 03 be 98 de 9b 3e
       -0.0023859632 0.1271999 -0.12812907 0.30443263
000230 ea 6b dc 3e 59 28 9b 3e 33 f9 02 3d 9c 67 ba 3d
       0.43051082 0.3030422 0.031975936 0.09101793
000240 fe 2a 93 be 72 bf 95 3d ce 93 40 3e 3d 35 e3 bd
       -0.28743738 0.07311906 0.18806383 -0.11094139
000250 6e 67 9e be c1 04 ad 3c 81 98 53 be d4 dc 88 be
       -0.30938286 0.02112043 -0.20663644 -0.26730978
000260 b6 ff ed bd b4 73 12 3e 82 a9 31 be da dd 37 be
       -0.116210386 0.1430195 -0.17349818 -0.17955723
000270 f4 24 45 3e 88 07 77 3d 8d 37 74 be df cb 88 be
       0.19252378 0.060309917 -0.23849316 -0.2671804
000280 b2 a6 56 3e 8b 80 74 3d 66 38 d6 3b 09 81 ff 3d
       0.20962027 0.0596929 0.006537485 0.124757834
000290 eb f4 97 be ca 49 97 be b2 1b 4d 3e fd 0d 50 be
       -0.29679045 -0.29548484 0.20030096 -0.20317836
0002a0 41 d8 90 bd a2 1f 71 bb 9c aa 8c 3e 9b 7c 1c be
       -0.07072497 -0.0036792536 0.27473915 -0.15281908
0002b0 84 7c 6a be 86 f5 1e 3d 43 eb ed 3c e9 f3 fe bd
       -0.22899061 0.03880837 0.029042846 -0.12448866
0002c0 bf b8 e7 bc e5 15 92 bd f8 ef 65 3e 85 70 5b 3c
       -0.028286336 -0.07133082 0.22454822 0.013393526
0002d0 dd b3 a0 3d cb 55 46 3e da 64 22 3e 45 8b 44 be
       0.07846806 0.19368665 0.15858784 -0.19193752
0002e0 78 00 40 3e ef a9 90 3e 5a 04 47 be 85 10 53 be
       0.18750179 0.2825465 -0.19435254 -0.2061177
0002f0 01 44 47 be 1a 28 03 bd 4d e8 6b be d9 63 c9 bd
       -0.19459535 -0.032020666 -0.23037834 -0.098334976
000300 f8 5d 12 3e 47 9f 55 3b 89 ab 8e be 27 98 8a 3c
       0.14293659 0.0032596157 -0.27865246 0.016918255
000310 91 5f da 3d 73 d3 8e be 45 1d 68 be 4b 57 0b be
       0.10662759 -0.27895698 -0.22667415 -0.13607518
000320 4d 64 8b bb 0e bd 88 be ec ac c6 bd 7d 18 af bd
       -0.0042539 -0.26706737 -0.09700951 -0.08549593
000330 a1 61 b7 3d 1e b7 9c bd 3b 13 01 be c8 6f 49 3a
       0.08954168 -0.07652114 -0.12604992 0.0007684198
000340 1f 82 3c 3e 30 6b 90 3e 8a 57 24 be ca 77 f8 bd
       0.18409012 0.28206778 -0.16049019 -0.12132223
000350 4a 71 0f 3d 45 48 9e 3d 37 76 66 3e 55 27 22 3e
       0.03502015 0.07728628 0.22506033 0.15835316

weight_hh_l0 f4 [36, 12]
000000 88 60 3c 3e 6b 30 61 bd 06 0c 96 3e 07 e4 f3 bd
       0.18396199 -0.054977816 0.29306048 -0.11908727
000010 88 3f 29 be 23 58 85 be 4d 94 9d 3e 3a 73 88 3e
       -0.16528141 -0.26043805 0.30777207 0.2665041
000020 5a e3 9d 3d 74 b2 06 3e 02 08 d6 3d 99 34 27 be
       0.077093795 0.13154012 0.10450746 -0.16328658
000030 3f 74 68 3e 3e ec 9a 3e 0d 3b c2 bc 8c 93 cc bd
       0.22700594 0.30258363 -0.023709798 -0.0998908
000040 7b 51 3f be bd ef f4 bc b5 82 5d be 56 5c 32 be
       -0.18683426 -0.029899472 -0.21631892 -0.17418036
000050 d8 b9 69 be 57 e3 a2 3b 91 11 eb bd 24 e9 1b 3e
       -0.228248 0.0049709487 -0.1147796 0.15225655
000060 6d fb 16 3e ad c7 31 be 23 7e c8 bd 8b fe fe bd
       0.14744349 -0.17361327 -0.09789684 -0.12450894
000070 59 73 2f 3e 68 1b 81 be db f5 98 3d dc 96 12 be
       0.17133845 -0.25216222 0.07468768 -0.14315361
000080 f0 82 d8 bd 49 b3 4b 3e 0b 05 c0 3d 0b 61 86 3c
       -0.10571849 0.1989261 0.09375962 0.016403696
000090 f2 9e 3a 3e ef 57 38 3e 97 36 69 3d 7e c4 2b 3e
       0.18224695 0.18002294 0.056936827 0.16774175
0000a0 65 d5 da bb 24 b5 09 be 44 e6 00 3d 1b 74 78 3e
       -0.0066782706 -0.13448006 0.0314696 0.2426304
0000b0 3e 9b dd bd bb f2 66 bd 5e c5 00 3e 38 41 85 bd
       -0.10820626 -0.05638383 0.1257529 -0.0650658
0000c0 ea f2 1f be 70 d6 b2 bd 36 d6 70 be 80 bf 92 3c
       -0.15620008 -0.08732307 -0.23519215 0.01791358
0000d0 c2 e1 5d 3e 3d b3 82 bc 5a d0 73 3e 8b 85 87 3e
       0.21668151 -0.015954608 0.23809949 0.26469073
0000e0 79 0a 1a bd d0 e6 f1 bd 4b 05 17 3e a7 b4 40 be
       -0.037607644 -0.11811602 0.14748113 -0.18818913
0000f0 2b e4 2e 3e 6f b8 18 3e 1f 61 80 be 58 bc 12 3e
       0.17079227 0.14914106 -0.25074098 0.1432966
000100 b6 5e eb 3d 5e bf 69 bd 19 97 21 be 12 3f b1 bd
       0.11492674 -0.057067268 -0.15780295 -0.08654608
000110 5c 1e c8 bd c5 9d 1e 3e d5 f4 e2 bd ef 33 59 3e
       -0.097714156 0.15489872 -0.11081854 0.21211217
000120 26 5b 27 be 6d e5 1a 3e 4e de 1d be f9 c7 61 3e
       -0.16343364 0.15126581 -0.15416834 0.2204894
000130 e5 ce 85 3e 9d 3c a9 bd 96 26 27 3d 0d 22 82 be
       0.2613441 -0.08263514 0.040808283 -0.25416604
000140 c9 1d 90 3e 43 04 45 3e d9 61 0a 3e f2 79 f9 3d
       0.28147724 0.19239907 0.13513888 0.12181462
000150 e1 48 24 3e 1b 90 03 3d 2b d8 df bd 55 47 71 bd
       0.16043426 0.03211985 -0.10929903 -0.05890592
000160 4b b9 98 3e da f1 47 be 78 b1 4e be 85 d0 73 3e
       0.29828867 -0.19525853 -0.20184886 0.23810013
000170 37 a2 18 3e b0 c2 96 be c9 30 3b 3e 03 77 c0 bb
       0.1490563 -0.2944541 0.18280329 -0.0058735623
000180 df 74 96 3e 60 78 46 3e 26 77 00 3e cd 6d 0f 3e
       0.2938604 0.19381857 0.12545452 0.1400673
000190 8c b7 52 be 61 80 0e 3e 63 92 82 3e 3d 33 a5 3d
       -0.2057783 0.1391616 0.2550231 0.080664136
0001a0 70 cf 23 be 9a 20 85 3e ca 4a 25 3e f4 4c 6b be
       -0.159971 0.26001436 0.16141811 -0.22978574
0001b0 b3 5e 87 bd 9c a6 1f be 38 83 83 be 2a a7 44 be
       -0.06609859 -0.155909 -0.2568605 -0.19204393
0001c0 84 84 92 be a2 19 b8 3d be 34 04 3e 50 aa 54 be
       -0.28616726 0.08989264 0.12910745 -0.20768094
0001d0 27 b2 c7 bd 48 87 89 be 5d 84 84 3e ac 1d de 3d
       -0.09750777 -0.26861024 0.25882235 0.10845503
0001e0 15 b3 e2 3d e4 93 e9 bd ab 2e 2d bc 7a b5 88 be
       0.110693134 -0.11405161 -0.010570209 -0.26700956
0001f0 73 5b 15 3e e4 81 b9 3d fc e7 21 3e c9 41 bc bd
       0.14585666 0.09057978 0.15811151 -0.09192235
000200 b8 bb e2 3d 21 6b aa ba 9d 27 d7 3d ff c0 9d 3d
       0.11070961 -0.0013001898 0.105056025 0.07702827
000210 cc 84 58 bd c6 ea 69 be d8 92 25 bd c0 6c 2c 3d
       -0.05286102 -0.22843465 -0.040423244 0.0420959
000220 b3 79 50 3e 34 db 8a bd b8 60 38 be 11 17 14 3e
       0.20358925 -0.06780091 -0.18005645 0.14461924
000230 fb 65 64 3e e4 98 84 be 1b 0a 86 3e 0c c7 9c 3d
       0.22304527 -0.25897896 0.26179585 0.07655153
000240 19 07 e7 bd 51 14 95 3d 2c 96 1a 3e 55 db c4 be
       -0.11280651 0.07279266 0.15096349 -0.38448587
000250 60 cf c2 3c 6a 0b ca be 7e e8 74 3e f0 51 0f bd
       0.023780525 -0.39461833 0.23916814 -0.03499025
000260 66 63 41 3e 97 90 bf be b0 80 d9 be f9 92 39 3d
       0.18885574 -0.37415 -0.42480993 0.04530618
000270 b1 e3 95 3e c6 53 be 3d 7a 92 c8 bd 18 44 c1 bc
       0.29275277 0.09293322 -0.09793563 -0.02359204
000280 00 43 7b 3e 4b de b7 be a8 b6 59 3e 7f 8c 83 3e
       0.24537277 -0.35911784 0.21261084 0.25693128
000290 c8 e3 08 be a0 b7 ed bb 95 f8 b5 3d d3 3d 02 be
       -0.13368142 -0.007254556 0.08885304 -0.12718897
0002a0 ea 12 25 3e 8b 63 5d be b4 9a a5 3d c8 e9 73 be
       0.16120496 -0.21620004 0.08086148 -0.23819649
0002b0 a7 12 d0 3b 55 b8 a3 be 62 d9 1f be 5b 34 9f 3e
       0.00634988 -0.31976572 -0.15610269 0.31094632
0002c0 25 96 2e 3e 27 fa 03 be d8 28 68 3e 86 3d a3 bd
       0.17049463 -0.12888394 0.2267183 -0.07970719
0002d0 89 11 9a be 5d 68 a4 be 2a 83 64 be f8 4a f8 3d
       -0.30091503 -0.32110873 -0.2231566 0.12123674
0002e0 8d f4 c2 bd 31 be aa 3d 46 9d 11 be cc 79 a2 be
       -0.095193006 0.083370574 -0.14220151 -0.3173355
0002f0 91 3f f6 bd cc 2d 77 3e 23 cb 6d 3e f9 6d bb bd
       -0.12023843 0.24138564 0.23222022 -0.09151835
000300 07 b6 94 be 70 52 80 be ac f7 1f 3d 4a 59 6c 3e
       -0.29045126 -0.25062895 0.039054558 0.23080936
000310 d6 f7 bd 3d 4d b9 36 3d ac d3 67 3e 94 12 0d bd
       0.092757866 0.04461031 0.2263934 -0.034441546
000320 a6 9f 17 3e 2d 03 f1 3c fa 70 8e 3e 72 b6 fd 3c
       0.14806995 0.02942046 0.2782057 0.030970786
000330 2a e6 8f 3c ed 0d 9c be 96 5c 3c be 6b b2 c6 bd
       0.017565805 -0.30479375 -0.18394694 -0.09701999
000340 72 0e 27 be 01 90 e4 bb 44 4d 9b be bb d7 b1 bd
       -0.16314104 -0.0069751744 -0.30332386 -0.086837254
000350 5a 1e ca be 84 e1 89 3e 7c 20 42 bb 77 1c 86 be
       -0.3947628 0.26929867 -0.0029621413 -0.26193592
000360 57 3b 5a 3c 82 4c c0 3c 5d 7f a9 3d aa 35 82 bd
       0.013319812 0.023473982 0.08276246 -0.06357892
000370 a8 83 c8 3d 0b d5 bd be 3f a2 5d 3e f8 39 bd 3c
       0.097907364 -0.370766 0.21643923 0.02309893
000380 a0 c4 48 3e e0 2f 57 be 55 25 be bd bb b7 06 3e
       0.19606256 -0.21014357 -0.09284464 0.13156025
000390 63 71 b1 3e 2d 57 17 3c 0d 00 9d bc f3 ab 5c 3c
       0.3465682 0.009237093 -0.019165063 0.01346873
0003a0 54 41 88 3e 31 0b 7b bd a4 eb 80 3c 66 3c 24 be
       0.2661234 -0.06128997 0.015737362 -0.16038665
0003b0 d1 be 98 3d 37 fe 07 be 0b 5d 1c 3d 43 7c 1e 3e
       0.0745827 -0.13280569 0.03817467 0.1547709
0003c0 d8 ce e7 3d 7f a4 38 be 7e a7 56 be 2b 4f 98 3d
       0.11318749 -0.180315 -0.2096233 0.07436975
0003d0 f6 cf 6a be a9 c1 e2 bb c2 1e 0b 3e 22 4e 96 3c
       -0.22930893 -0.0069200587 0.13585952 0.018347804
0003e0 74 b8 48 3d 2d 85 f9 bc ec 6d 0b 3c 44 8b 3b be
       0.049004033 -0.030459011 0.008510094 -0.18314844
0003f0 a6 72 ed bd 94 11 62 be 28 49 bd bd e1 66 52 be
       -0.11594133 -0.22077018 -0.09242469 -0.20547058

bias_ih_l0 f4 [36]
000000 20 9d 89 be 43 f6 69 3e 1e 07 c3 3c ca 64 60 be
       -0.2687769 0.22847848 0.023807105 -0.21913448
000010 31 39 b6 3d d6 e2 c6 bd 8e b2 42 bc 94 6d 6c 3c
       0.08897627 -0.09711234 -0.011883391 0.014430422
000020 4d 8e 8f 3e 82 90 4f be 5f 3e 22 be 17 61 d0 3d
       0.28038254 -0.20269969 -0.15844105 0.101747684
000030 ca b5 8c be 0c 9f de be 18 9f 1c be 7f f6 41 3d
       -0.27482444 -0.43480718 -0.15295064 0.047354218
000040 78 0b a9 bd 49 07 cc bd e2 46 6e be 52 88 48 be
       -0.082541406 -0.09962327 -0.23269227 -0.19583252
000050 1a 79 19 3e 3b 0e 33 bd 69 a9 80 be 6f 86 50 bc
       0.14987603 -0.043714743 -0.2512925 -0.012727364
000060 95 2e 99 be ad be 91 be 84 1b 83 b9 ce d2 3e 3e
       -0.29918352 -0.28465787 -0.00025006768 0.18635103
000070 32 c9 d8 bd 85 1f 41 3e f1 f4 78 be 59 40 1c 3e
       -0.1058525 0.1885968 -0.24312188 0.15258922
000080 7b 26 05 be 05 f0 86 3e 05 e9 50 3e 82 3c bd bd
       -0.1300296 0.26354995 0.2040139 -0.092400566

bias_hh_l0 f4 [36]
000000 01 53 33 bc 4d 9a 0d 3e 50 f8 a4 bc e4 49 19 3e
       -0.010945083 0.13828392 -0.020137936 0.14969593
000010 86 b3 48 3e fb 88 37 be 8b 78 e9 bd 9f 82 f6 bd
       0.19599733 -0.17923348 -0.11399945 -0.12036633
000020 ae 47 f4 bd a9 7b 57 be b0 e0 87 3d 30 57 4c be
       -0.11927734 -0.21043266 0.066346526 -0.19955134
000030 c7 54 4e be 32 e4 09 be 7b 8a ba be 89 c7 ac ba
       -0.20149527 -0.13465956 -0.36433777 -0.0013182025
000040 51 a1 0a be a9 37 d4 3e 56 8d 64 bd 29 47 3c bd
       -0.135381 0.41448715 -0.05579885 -0.0459663
000050 a2 10 16 3e 25 b2 4a 3d bb d1 92 3d a0 75 cc 3c
       0.14654782 0.049486298 0.07168909 0.024958432
000060 6d d3 35 3e bf 14 48 3e f5 9a ca bd d9 b4 19 3e
       0.17756434 0.19539164 -0.09892837 0.15010394
000070 61 c3 8c bd 44 5f b1 3d d6 44 88 bd 37 5c 13 be
       -0.06873203 0.086607486 -0.066537544 -0.14390646
000080 4a 21 7a be 1b 83 cc bd b9 10 55 be 79 e5 81 be
       -0.24426761 -0.09985944 -0.2080716 -0.25370386

weight f4 [12, 24]
000000 81 04 df 3e 8e 97 4c be fe 89 87 bd 36 3e 40 be
       0.43558124 -0.19979689 -0.06618117 -0.18773732
000010 b8 ad 94 3e 79 0b 05 3d 3d 47 66 be ba c0 a2 be
       0.29038787 0.032481644 -0.22488113 -0.31787664
000020 6e 81 14 3e e1 01 a9 be 5b 53 67 3e 4e d9 4e 3e
       0.14502499 -0.33009246 0.22590391 0.20200083
000030 9e f6 17 3e 3c 8b af be 65 b4 96 be 3d dd 03 bc
       0.1484017 -0.34285915 -0.29434505 -0.008048353
000040 82 fb c7 bd 9f ce d5 bd 3f 80 d9 3e df a0 84 3e
       -0.09764768 -0.104398005 0.42480657 0.25903985
000050 f4 ae 3f bb 51 c0 13 3b 28 88 01 3f 80 46 e8 3e
       -0.0029248567 0.002254505 0.5059838 0.45366287
000060 10 14 14 bf 27 f2 59 bf 24 94 b1 be f4 25 df be
       -0.5784311 -0.8513512 -0.34683335 -0.43583643
000070 03 ff 7d 3c af 99 2c be f4 00 14 be 9c 2b 03 bf
       0.015502694 -0.168555 -0.14453489 -0.5123842
000080 f0 af ad be 52 0c 5a be 0c cd 9e be 46 d8 8e 3d
       -0.33923292 -0.21293762 -0.31015813 0.06974845
000090 97 2a b1 be 42 6d 5f 3e d1 2f 7b bd 2d 54 e7 3e
       -0.34602806 0.21819022 -0.0613249 0.4518141
0000a0 d7 b1 57 be 42 eb 29 3e e2 ba 07 bf a0 67 81 be
       -0.21063934 0.1659365 -0.53019536 -0.25274372
0000b0 6f 08 0f 3e 17 f4 2a 3d 79 28 eb 3d 78 83 96 3e
       0.13968061 0.04173669 0.11482329 0.29397178
0000c0 c8 0c ed 3c 3c 3d 84 be 07 ac 64 3e 8a 79 c7 bc
       0.028936759 -0.25827968 0.22331248 -0.024349947
0000d0 d5 9d 77 be 67 b9 7a 3c bd 2f 97 3e 47 b5 0d bf
       -0.24181302 0.015302992 0.2952861 -0.5535473
0000e0 d0 4e 50 be 58 95 04 be f2 ba 15 bf 65 01 6d 3f
       -0.20342565 -0.12947595 -0.5848838 0.9258025
0000f0 40 b7 c1 3e 04 00 a7 3e 7d 1a 33 be cf c5 79 3e
       0.3783512 0.326172 -0.17490573 0.24391864
000100 8a 72 37 3e 0d 99 ae 3d 84 d9 dc 3d a2 4f 81 be
       0.17914787 0.08525286 0.10783675 -0.25256068
000110 15 2b 8c 3d c2 52 ba 3d fe 17 f1 3d 37 22 57 3e
       0.06844155 0.09097816 0.11772154 0.21009146
000120 b9 69 18 be b7 d7 97 3e dc ff 9e be e3 2f 8e be
       -0.1488408 0.29656765 -0.3105458 -0.2777091
000130 e5 d3 a8 bd ca 6a 32 3e 0d 66 1a bf ff 25 69 be
       -0.08243541 0.1742355 -0.6031197 -0.227684
000140 d3 65 69 be 7e 72 69 be 42 ad d8 bd 79 dc 7d 3d
       -0.22792749 -0.22797582 -0.10579921 0.061977837
000150 18 c9 f7 3d 69 0a 5e bf 71 72 82 be 7d 07 27 3e
       0.120989025 -0.86734635 -0.25477937 0.1631145
000160 75 1a 2d be 96 ab 2b 3c 74 35 80 3e 30 e0 d2 3e
       -0.16904624 0.010477921 0.25040781 0.41186666
000170 51 1b 00 3f 5e 76 c0 be 5b b5 98 3e 9d ee 90 be
       0.5004168 -0.37590307 0.29825863 -0.28307047
000180 41 25 8b be 40 9c 79 be d9 ec 47 3e 73 3c 35 3f
       -0.2717686 -0.24376011 0.19523944 0.70795363
000190 7a 4f 25 be db ea 88 be 3e 2e 75 3f ef b8 ef 3c
       -0.16143599 -0.2674168 0.95773685 0.029262988
0001a0 2c bf bc 3e 86 a2 93 3e 24 93 5f 3e a3 9b 50 be
       0.36864603 0.28834933 0.21833473 -0.2037187
0001b0 dd 32 c6 3e 74 59 14 be 4a 27 fc be 44 c8 8d be
       0.3871068 -0.14487249 -0.49248725 -0.27691853
0001c0 e6 ba 80 3c 23 b8 ca be e9 5b 38 3f 8f 2d 5b bf
       0.01571412 -0.3959361 0.72015244 -0.8561639
0001d0 ce 60 32 bf 49 0a 32 be ca bd 7e 3e 66 6e c0 3d
       -0.6967896 -0.17386736 0.24877086 0.09396057
0001e0 4c 28 13 bd 90 3b 36 be 31 84 a1 3e d3 16 99 3c
       -0.035927102 -0.17796159 0.31546167 0.018687641
0001f0 d2 0f 3d be 3b 4b ef bd 0e ab b7 3e 7e eb 62 3d
       -0.18463066 -0.11684271 0.35872692 0.055400364
000200 51 c2 4c 3e fb b2 f7 3d ff 7b 77 3f ad ab cc 3c
       0.19996001 0.12094685 0.9667358 0.024984205
000210 fb 4c 4a bd fe 8d 21 bf cc 54 87 3e 85 fd 5f be
       -0.04938982 -0.6310729 0.26431882 -0.21874054
000220 32 5e 7a 3e 6c 57 41 bd 36 40 d6 bd 24 2d 9c 3e
       0.24449995 -0.047202513 -0.10461466 0.3050319
000230 b2 e4 12 3e 78 15 dc 3e 81 1c 25 3d e4 2b f4 3d
       0.14345053 0.4298513 0.040310387 0.11922434
000240 a3 39 e8 be 00 81 be 3d 64 cd ba bd cc 6c d6 3e
       -0.45356473 0.093019485 -0.091212064 0.4187988
000250 e6 9b 06 bf b1 fb 90 bc 3a 4a 14 3e a6 62 d1 3d
       -0.5258163 -0.01769814 0.1448144 0.10223894
000260 b4 03 f1 bd bb 31 9d 3e 6a ad cf 3e b3 ad ef 3d
       -0.117682844 0.30702004 0.40561992 0.11703052
000270 04 9b dc 3e 37 3a 83 be 36 c7 76 be 07 14 cc be
       0.43087018 -0.25630352 -0.2409943 -0.3985903
000280 c4 88 62 3f cc 99 a4 bd 97 6f 4e 3e 08 fa 68 3e
       0.8848994 -0.08037147 0.20159756 0.2275163
000290 c3 db 2f be 12 d4 21 bf 39 00 27 be 11 a9 26 bf
       -0.17173676 -0.6321422 -0.16308679 -0.65101725
0002a0 b5 c0 bf be 72 42 99 3e 4d d4 a9 3e 6e d7 6d 3e
       -0.3745171 0.29933506 0.33169785 0.23226711
0002b0 ba 7d 87 be 1c 31 97 3d 2b 4a dd be 88 b3 4e 3f
       -0.2646311 0.07382414 -0.43220648 0.8074269
0002c0 bb 4c 94 be de d7 96 3e 91 97 03 bc 40 e0 52 3e
       -0.2896479 0.2946157 -0.008031742 0.20593357
0002d0 49 e8 0b 3f a9 9a d6 be 69 81 b1 3d 7f dc ad 3e
       0.54651314 -0.4191487 0.08667261 0.33957288
0002e0 86 4e 64 bf 51 f4 11 bf 99 ca dd bd 3f 2c 21 bf
       -0.8918232 -0.5701342 -0.10829658 -0.6295814
0002f0 95 36 88 be 71 73 83 bd b9 0d b3 bd 1f dc 56 3e
       -0.26604143 -0.06418503 -0.08742852 0.20982407
000300 d3 fe fc 3d 60 40 31 3e a0 30 97 be cc 50 1e 3f
       0.12353291 0.17309713 -0.29529285 0.61842036
000310 c8 85 c1 3e 6b f8 0e bf b0 18 9e 3d 1e 86 4b 3e
       0.3779738 -0.55847806 0.077195525 0.1987538
000320 d9 b2 ca be 20 da 33 3e 64 01 cc 3d 2d 9f f3 3d
       -0.39589575 0.17563677 0.09961203 0.11895595
000330 61 30 a0 be ff a3 e4 be 4c aa 5a 3e 71 94 0a bd
       -0.3128691 -0.4465637 0.21354026 -0.03383297
000340 4f eb 00 be d1 41 16 3e c5 32 a1 be 3b 1b 6c 3d
       -0.12589763 0.14673544 -0.31484047 0.057643156
000350 24 b8 32 3f 8a 23 e1 3e 77 8a f5 be 9d bd 02 3f
       0.69812226 0.43972427 -0.47957203 0.51070577
000360 cf 05 7d be c4 d1 05 3e 9e 33 95 3e ee 81 cb 3e
       -0.24709247 0.130683 0.29140943 0.39747566
000370 4e 2e fe 3d 1f 8b 45 bd 01 01 b5 be 5f b1 fb be
       0.12411176 -0.04822838 -0.35352328 -0.4915876
000380 21 a5 23 3f 41 3f 99 bd 6f aa 90 3c f4 95 18 3e
       0.6392384 -0.07482768 0.017659394 0.14900953
000390 45 67 14 3e fb ab dd be 24 ef 6a be 2c 74 82 3d
       0.14492519 -0.43295273 -0.22942787 0.06369814
0003a0 f9 54 f8 be d7 12 48 3e 5a e6 44 3f cd 25 60 be
       -0.4850233 0.19538437 0.7691399 -0.2188942
0003b0 54 bf 00 3f 55 54 c8 be f9 3b 53 bf b5 4c 97 be
       0.50291944 -0.3912684 -0.82513386 -0.2955071
0003c0 f5 55 ce 3d 19 67 4d 3f 5d 07 06 3c 94 54 83 3e
       0.10074989 0.8023544 0.0081804665 0.25650465
0003d0 41 d8 cb bd dc da 0b 3d f5 97 ca 3d a9 57 01 3f
       -0.099533565 0.034144267 0.09892265 0.50524384
0003e0 69 f3 d8 bd 3b 96 87 be dd 5d 1d bf 4c 5f 4c be
       -0.10593302 -0.26481804 -0.6147135 -0.19958228
0003f0 a9 ba 13 3f 42 32 42 bf 4b e8 e8 3d 3c 36 22 bf
       0.57706696 -0.7585794 0.11372431 -0.63364005

bias f4 [12]
000000 17 a2 b2 3c 31 fa 75 bc 1c f4 4b bd 10 b4 60 be
       0.021805806 -0.015013264 -0.049793348 -0.21943688
000010 7d 3e 88 3d dd 87 24 3b 90 a2 03 be 5a a8 6c bd
       0.06652544 0.0025105395 -0.12854981 -0.05777774
000020 49 d1 1e 3e ec e2 e6 3d 6b fe e4 3d 4c c7 3e 3c
       0.15509523 0.11273751 0.11181339 0.011644196

weight f4 [1, 24]
000000 57 08 87 3e 30 bb f6 3e c0 74 9e be 3f f2 f2 be
       0.2637355 0.48189688 -0.30948448 -0.47450444
000010 0d 3c 9a 3e c7 f9 a8 3e 7a 26 5a bf 4e 9e e2 bd
       0.3012394 0.33003065 -0.8521496 -0.110653505
000020 0a f3 ab bd 00 d0 71 3d 77 95 56 be 9a 56 47 bf
       -0.083959654 0.059036255 -0.20955454 -0.7786652
000030 b5 37 ce bd 3a cc 43 3e 7a 84 7b be d5 4d 77 3e
       -0.10069219 0.19120875 -0.24562255 0.24150784
000040 f6 d5 3b bd b2 a2 70 be ba b3 6c be 85 7e be be
       -0.045858346 -0.23499563 -0.23115435 -0.37205902
000050 56 65 c2 3e 56 c8 ec be 10 ba e6 3d d3 45 19 be
       0.37967938 -0.46246594 0.11265957 -0.14968042
