CSJ2.pth (torch, 8015 bytes, 7 tensors)

weight_ih_l0 f4 [36, 6]
0	0xbd284053	-0.04107697
1	0xbd25a204	-0.040437713
2	0xbdc62662	-0.0967529
3	0x3e6e94fb	0.23299019
4	0x3e2138df	0.15744351
5	0x3de0f621	0.10984445
6	0xbe887770	-0.26653624
7	0xbe5c17d1	-0.2149346
8	0xba06d4c4	-0.0005143399
9	0x3dc62b25	0.09676198
10	0xbd782dd0	-0.060590565
11	0xbdf3a50e	-0.11896716
12	0xbd8057ef	-0.06266772
13	0xbe3a9baa	-0.18223444
14	0xbe2ab71b	-0.16671412
15	0x3e7c7569	0.24654163
16	0xbd5d6c7a	-0.05405853
17	0xbe8dbbf8	-0.2768247
18	0x3dacaa32	0.084309
19	0xbe62551f	-0.22102784
20	0xbe2efd4e	-0.17088816
21	0x3ddc4dc5	0.10757021
22	0xbd88f485	-0.066872634
23	0x3d601587	0.05470803
24	0xbd94514d	-0.072420694
25	0xbe8c3507	-0.27384207
26	0x3db1c9a4	0.08681038
27	0xbc98e4f3	-0.018663859
28	0x3e821466	0.25406188
29	0xbe78e7a6	-0.24307117
30	0x3d90c367	0.0706852
31	0x3e05229f	0.13001488
32	0x3e093d20	0.13402224
33	0xbe64b90d	-0.22336216
34	0x3e0c8d0c	0.1372568
35	0x3da45910	0.080248
36	0xbd517559	-0.051137302
37	0x3e177361	0.14790107
38	0xbd595a78	-0.053064793
39	0xbda1b953	-0.07896676
40	0x3e2c7038	0.16839683
41	0xbdf487ea	-0.11939986
42	0x3e3ff797	0.18746792
43	0x3c6c659c	0.014428522
44	0xbdd1181f	-0.10209679
45	0x3e7e4056	0.2482923
46	0xbe012d3d	-0.12614913
47	0xbd3a9baa	-0.04555861
48	0x3e38add1	0.18035056
49	0x3e6d9cb9	0.23204316
50	0x3e51ac52	0.20475891
51	0xbe87d049	-0.26526096
52	0x3e500619	0.20314826
53	0xbe129f76	-0.14318642
54	0x3e21ea6f	0.15812086
55	0x3e246c89	0.16057028
56	0xbe043e50	-0.12914395
57	0x3d00088c	0.03125815
58	0xbd2ef6e1	-0.04271591
59	0xbd697694	-0.05699785
60	0xbe27ea62	-0.16398004
61	0xbdbe2774	-0.09284869
62	0xbe3add7f	-0.18248557
63	0xbcb226a7	-0.021746946
64	0x3e4be859	0.19912852
65	0xbe8fadf3	-0.280624
66	0x3de4991c	0.11162016
67	0xbd4ff70c	-0.05077271
68	0xbd108136	-0.035279475
69	0x3e70aeea	0.23504224
70	0x3e157398	0.14594877
71	0xbdbcb737	-0.09214633
72	0xbd192265	-0.037386317
73	0xbdeb7954	-0.11497751
74	0x3dd40823	0.103531145
75	0xbd933817	-0.07188433
76	0x3dfa1104	0.12210277
77	0xbec62fa0	-0.3870821
78	0x3c8c5fbc	0.017135493
79	0x3e63542d	0.2220008
80	0xbe2bce00	-0.16777802
81	0xbe7acf7c	-0.24493212
82	0xbd2c8cb3	-0.04212637
83	0x3de4b041	0.1116643
84	0x3e8c680a	0.27423126
85	0xbd8d18ec	-0.06889519
86	0x3e70658a	0.23476234
87	0xbe5d33a3	-0.21601729
88	0x3ea8d0f1	0.3297191
89	0xbd68e7c0	-0.05686164
90	0xbd97dde6	-0.07415371
91	0xbe1d1518	-0.15340078
92	0xbcd17e09	-0.025572794
93	0x3e8ae228	0.2712567
94	0x3e4a5f01	0.19762804
95	0x3e86e496	0.26346272
96	0x3e05b2b7	0.13056456
97	0xbdfdd819	-0.12394733
98	0x3de44ae5	0.111470975
99	0xbe5836ff	-0.2111473
100	0xbdc82936	-0.09773485
101	0xbe61ddbe	-0.22057244
102	0x3db73f62	0.08947636
103	0xbeafeba9	-0.34359482
104	0x3e0280d5	0.12744458
105	0x3dd5529b	0.10416146
106	0xbc392dbb	-0.011302407
107	0xbed6071c	-0.418023
108	0x3dddddfe	0.10833357
109	0xbaceb91d	-0.0015771721
110	0xbe97cdd5	-0.29649225
111	0x3e6a058d	0.2285368
112	0x3df9e5c5	0.12202028
113	0xbe24c5d5	-0.16091092
114	0xbe8d2eb3	-0.2757469
115	0xbebdc070	-0.3706088
116	0x3dc75e40	0.09734774
117	0x3d44864e	0.047979645
118	0xbe33c966	-0.17557296
119	0x3dab7ee8	0.08373815
120	0xbd522244	-0.05130221
121	0xbd07f5c3	-0.03319336
122	0x3c8a8eb4	0.01691375
123	0xbe33aba9	-0.17545952
124	0x3d52d7d5	0.051475365
125	0x3e011869	0.12606968
126	0xbda775a1	-0.08176733
127	0xbe4ea126	-0.20178661
128	0x3e8678a9	0.2626393
129	0x3c558f24	0.013034616
130	0x3c8d4c27	0.017248226
131	0x3e0696c8	0.13143456
132	0xbe1d07d8	-0.15335023
133	0xbe878e04	-0.26475537
134	0x3e08b200	0.13349152
135	0x3d8eb64b	0.069683634
136	0xbe894f2f	-0.26818225
137	0xbe1dfe43	-0.15429024
138	0x3e1ae3cd	0.15125962
139	0x3e16b47b	0.14717285
140	0xbe8e2d6f	-0.27769038
141	0xbec0ca80	-0.37654495
142	0xbd836d5f	-0.06417345
143	0xbeae55d9	-0.34049872
144	0x3e5ae86b	0.21377723
145	0x3df29b0c	0.11845979
146	0xbda2cacd	-0.079488374
147	0xbe1e9faa	-0.15490595
148	0x3da716af	0.081586234
149	0x3e575b74	0.2103098
150	0x3e8d6a94	0.27620375
151	0xbe3f2647	-0.18666945
152	0x3e12f93b	0.14352886
153	0xbd346c4c	-0.044048592
154	0xbe69e093	-0.22839575
155	0xbe8e4151	-0.27784207
156	0xbdb2a60b	-0.087230764
157	0x3d04ca5c	0.032419547
158	0xbe4eafba	-0.20184222
159	0x3d8fcb48	0.07021195
160	0xbc221a57	-0.009893975
161	0x3e8c18f5	0.2736279
162	0x3d4671bf	0.04844832
163	0xbe8cde36	-0.27513283
164	0x3e3d3034	0.1847542
165	0x3e3a12c3	0.1817122
166	0x3e488ed7	0.19585739
167	0xbe018da4	-0.12651688
168	0xbe994cd4	-0.29941428
169	0xbe56aa24	-0.20963341
170	0x3e8a917c	0.2706412
171	0xbe01ceef	-0.12676595
172	0xbd9c3208	-0.0762673
173	0xbd880ef0	-0.06643474
174	0x3c9d8958	0.01923053
175	0x3d16a0d9	0.03677449
176	0xbe583fe5	-0.21118124
177	0xbe7932f4	-0.24335843
178	0x3e908cee	0.2823252
179	0x3e693180	0.22772789
180	0x3e73441c	0.2375645
181	0x3dc24b22	0.09486987
182	0xbd39f3f6	-0.045398675
183	0xbd560851	-0.052254025
184	0xbe90286e	-0.28155845
185	0xbe4d3bb2	-0.20042303
186	0x3dc6d07e	0.097077355
187	0x3da2ddcf	0.07952463
188	0x3d8379ba	0.06419702
189	0x3e17881d	0.14798017
190	0x3d3e11da	0.046403743
191	0xbdaefadd	-0.08543942
192	0xbe88fb0e	-0.2675404
193	0xbde4820c	-0.11157617
194	0x3e221a71	0.15830399
195	0x3b987193	0.004652211
196	0x3e444d66	0.1917015
197	0x3b6e256f	0.003633823
198	0xbdb28998	-0.0871765
199	0xbe0edb67	-0.13950883
200	0xbd597a39	-0.053095076
201	0x3e650d9a	0.2236847
202	0xbd77858f	-0.060430106
203	0x3e89c860	0.26910686
204	0xbd25e32a	-0.040499844
205	0x3df0e8bb	0.1176314
206	0x3de22319	0.110418506
207	0x3dfff794	0.12498394
208	0xbd242e0b	-0.040082972
209	0x3e45479f	0.19265603
210	0x3dbade42	0.091244236
211	0x3d9c7e24	0.07641247
212	0x3e35a1ad	0.17737456
213	0x3db0f34f	0.086401574
214	0x3e20e990	0.15714097
215	0x3d4661e0	0.048433185

weight_hh_l0 f4 [36, 12]
0	0x3c2f050a	0.010682354
1	0xbce0c5d0	-0.027438074
2	0x3e8c081e	0.27349943
3	0x3e276d98	0.163504
4	0xbe3694cb	-0.17830198
5	0xbc72fe51	-0.014831142
6	0x3e7dea2e	0.24796364
7	0xbd83e680	-0.06440449
8	0xbdffdcb6	-0.12493269
9	0xbe7f6f14	-0.24944717
10	0xbd508c56	-0.050915085
11	0xbdf15c10	-0.11785138
12	0x3e4c6fe9	0.19964565
13	0x3e3147f1	0.173126
14	0x3e3329b5	0.17496379
15	0x3e5fa17b	0.21838944
16	0xbe37626a	-0.17908636
17	0x3e3c8ed5	0.18413861
18	0x3e6386d2	0.22219399
19	0x3d98888c	0.07447919
20	0xbe1b28e4	-0.15152317
21	0x3e49c3b1	0.19703557
22	0xbe163835	-0.14669879
23	0xbe8f4f20	-0.27990055
24	0xbe2eba57	-0.1706327
25	0x3e95590e	0.29169506
26	0x3e794d92	0.24345997
27	0x3e81fc87	0.25387976
28	0xbd835f92	-0.06414713
29	0x3d3e0ddb	0.046399932
30	0x3d8181c1	0.06323577
31	0x3da0c14a	0.07849367
32	0xbe103b20	-0.14085054
33	0x3ddb857d	0.1071882
34	0xbe8d1455	-0.27554575
35	0xbdb5250d	-0.088449575
36	0xbcf6f225	-0.03014476
37	0xbe3fbd2e	-0.1872451
38	0xbe8ecb2c	-0.27889383
39	0xbd662c26	-0.056194447
40	0x3e058673	0.1303957
41	0x3e7217b4	0.23641855
42	0x3c95c65c	0.018283062
43	0x3e6c5814	0.23080474
44	0xbe03a292	-0.12854984
45	0xbd67543d	-0.05647682
46	0xbd12d784	-0.035850063
47	0xbdddfbc9	-0.1083904
48	0x3e73afd6	0.23797545
49	0xbe553876	-0.2082232
50	0xbb8ffdd1	-0.004394271
51	0xbdd0b512	-0.101907864
52	0x3e09fe1e	0.13475844
53	0xbce598f9	-0.028027045
54	0x3d6651d3	0.056230377
55	0x3e07965b	0.1324095
56	0xbca6ae7a	-0.020346869
57	0xbe7c8bc7	-0.24662696
58	0xbdcc94a5	-0.09989289
59	0x3e6dcfdd	0.23223825
60	0x3e719ab9	0.23594178
61	0xbe926b69	-0.28597572
62	0xbd87b0e9	-0.0662554
63	0xbe3f60b8	-0.18689239
64	0x3e438d67	0.1909691
65	0x3d0ec350	0.034854233
66	0x3e7b671e	0.24551055
67	0x3e94af30	0.29039907
68	0x3d280f38	0.04103014
69	0x3e02e06d	0.12780924
70	0x3d527195	0.05137785
71	0x3e0a4135	0.13501437
72	0x3d8223d0	0.06354487
73	0x3d01d666	0.031698607
74	0x3c9f2d3b	0.019430747
75	0xbe58e558	-0.21181238
76	0xbe8e04ca	-0.2773803
77	0x3e69fd37	0.228505
78	0xbb008d8f	-0.0019615625
79	0x3dd01b3f	0.10161447
80	0x3d272f66	0.040816687
81	0xbe8bef85	-0.27331176
82	0x3e658aa6	0.22416171
83	0x3e8ad383	0.27114496
84	0xbd703cab	-0.058651607
85	0xbe4b0573	-0.19826297
86	0x3e61accf	0.22038577
87	0x3e89903d	0.26867858
88	0x3d109f8d	0.03530841
89	0xbe91ae7b	-0.2845343
90	0x3d9cd34a	0.07657488
91	0xbc3bc07d	-0.011459467
92	0xbe188656	-0.14894995
93	0xbd9c01cb	-0.076175295
94	0x3e686b33	0.22697143
95	0x3e421851	0.18954588
96	0x3e3797c4	0.17928988
97	0xbd23b8a1	-0.039970998
98	0x3d1715ca	0.036886014
99	0x3c701aa0	0.014654785
100	0xbd431a51	-0.04763252
101	0x3df1a78c	0.11799535
102	0xbd8b62b3	-0.06805935
103	0xbe589405	-0.21150215
104	0x3e0433c7	0.12910376
105	0x3e259eb4	0.16173822
106	0x3e83a6b7	0.2571313
107	0x3dfab364	0.12241247
108	0xbdae3b07	-0.08507352
109	0xbdf0bc09	-0.11754615
110	0xbe76719c	-0.24066776
111	0x3e54d81c	0.20785564
112	0xbe1ac8ff	-0.15115736
113	0x3e7da4b5	0.24769862
114	0xbcdd7156	-0.027031582
115	0xbe093b4b	-0.13401525
116	0xbcbe821a	-0.023255397
117	0x3d6d010e	0.057862334
118	0xbd954769	-0.07289011
119	0x3e6692aa	0.22516885
120	0x3e8e8bb5	0.27840963
121	0xbe6347e5	-0.22195394
122	0xbe8b36f7	-0.27190372
123	0xbe1cb2bb	-0.15302555
124	0xbc9e5926	-0.019329619
125	0xbe55bc0a	-0.20872512
126	0xbe18cbcb	-0.14921491
127	0xbb0962e2	-0.002096348
128	0xbd7e56c5	-0.06209447
129	0x3dbc646d	0.09198842
130	0x3b961e71	0.0045812656
131	0x3e822439	0.2541826
132	0x3e0a0045	0.13476665
133	0xbd8fe8f7	-0.070268564
134	0xbe17fa78	-0.1484164
135	0x3e0ebaf9	0.13938512
136	0x3d37d1f4	0.04487796
137	0xbe3ca37e	-0.18421742
138	0x3a9fd9ce	0.0012195648
139	0x3e6991e9	0.22809567
140	0x3e837a5c	0.2567929
141	0xbdc28b05	-0.09499172
142	0xbd21a6bf	-0.039465662
143	0x3bba34df	0.0056825723
144	0xbdcb24c4	-0.09919122
145	0xbe84f6bd	-0.25969496
146	0xbece9e18	-0.4035499
147	0xbdf91010	-0.12161267
148	0x3ddc3fcd	0.107543565
149	0x3e081923	0.13290839
150	0xbd9beca3	-0.07613494
151	0x3e73fc0b	0.23826616
152	0xbde16fd6	-0.11007659
153	0xbdc15a7f	-0.09441089
154	0x3dadd32a	0.08487542
155	0x3deb40ac	0.114869446
156	0xbe529c1c	-0.20567364
157	0x3e4a5b06	0.19761285
158	0x3dc49499	0.09598655
159	0x3dcb4540	0.09925318
160	0xbe64a6cd	-0.22329254
161	0xbe42c4d7	-0.19020401
162	0xbca14ca6	-0.01968987
163	0xbe8282b5	-0.25490347
164	0x3e7183c8	0.23585427
165	0xbe430ce7	-0.1904789
166	0xbe454047	-0.19262801
167	0x3d80a4a0	0.062814
168	0xbe44fa34	-0.1923607
169	0xbe6a47ce	-0.22878954
170	0x3e1d58fd	0.15365978
171	0x3ddf2124	0.10894993
172	0xbe93f7ad	-0.288999
173	0x3e6d5fd5	0.23181088
174	0xbe4570e7	-0.1928135
175	0xbd24ad22	-0.040204175
176	0xbe1eff25	-0.15527017
177	0xbc50cbd8	-0.012743913
178	0xbe66970c	-0.22518557
179	0xbdc7bcbc	-0.09752795
180	0xbe958039	-0.2919939
181	0xbe267203	-0.1625443
182	0xbde6318c	-0.11239919
183	0x3e98641f	0.29763886
184	0x3d6f8e36	0.058485232
185	0xbccbf268	-0.024895862
186	0x3e5c6b4a	0.21525303
187	0xbcd8d45e	-0.026468452
188	0x3e438aa6	0.19095859
189	0x3ca8eba2	0.020620171
190	0xbdc9d30c	-0.09854707
191	0x3dfeb3e4	0.12436655
192	0xbeba0ecb	-0.3633941
193	0xbe164747	-0.14675628
194	0xbe85a122	-0.26099497
195	0x3e5bb867	0.21457063
196	0xbda3d92c	-0.080004066
197	0xbdab0f2a	-0.08352502
198	0xbe8f7e92	-0.28026253
199	0x3eb2d2ef	0.34926555
200	0x3e2f8806	0.17141733
201	0xbe162d57	-0.14665733
202	0xbcb20efb	-0.021735659
203	0xbec520b5	-0.38501516
204	0x3db79f9e	0.089659914
205	0xbecf2c01	-0.4046326
206	0xbe832f0c	-0.2562183
207	0x3ea106e5	0.31450573
208	0x3e72b9e4	0.23703724
209	0x3c2e6e53	0.0106464205
210	0xbead94eb	-0.33902678
211	0x3e9984a0	0.29983997
212	0xbe17719c	-0.14789432
213	0xbb425f70	-0.0029658936
214	0xbead54a9	-0.33853653
215	0xbdf592b6	-0.119908735
216	0xbe0283aa	-0.12745538
217	0x3d6bc301	0.057559017
218	0x3d997a70	0.07494056
219	0xbd2ecbce	-0.042674832
220	0xbe44a4ad	-0.19203444
221	0x3df38073	0.11889734
222	0x3db87112	0.090059415
223	0x3e845289	0.2584422
224	0xbe8c2dc6	-0.27378672
225	0x3daad3f0	0.08341205
226	0xbe6abecc	-0.22924346
227	0xbe0c4651	-0.13698699
228	0x3d390eb0	0.045180023
229	0x3d7b4171	0.061341707
230	0xbe8c2965	-0.27375332
231	0x3e30c121	0.17261173
232	0xbe3c7592	-0.18404225
233	0x3dfe822c	0.12427172
234	0xbeb08e41	-0.3448353
235	0x3e497d99	0.19676818
236	0xbeb2f23a	-0.3495043
237	0x3d6888b2	0.056770988
238	0xbe953f1e	-0.29149717
239	0xbc43876a	-0.011934141
240	0xbe21c577	-0.15797983
241	0x3cede990	0.029042035
242	0x3cfa14e0	0.030527532
243	0x3e79a948	0.24380982
244	0x3e259252	0.16169098
245	0xbcc9c875	-0.024631718
246	0x3d609eda	0.054838993
247	0xbcdb379c	-0.026759915
248	0x3e440d50	0.19145703
249	0x3e278425	0.16359003
250	0xbe37d39c	-0.17951816
251	0x3e4150cd	0.1887848
252	0x3cdd9f41	0.027053477
253	0x3df3cbba	0.11904092
254	0x3dda57bd	0.10661266
255	0x3d000266	0.031252287

bias_ih_l0 f4 [36]
0	0x3e20f901	0.15719987
1	0x3e838b49	0.25692204
2	0x3e6bf89e	0.23044059
3	0xbc436dda	-0.011928046
4	0xbd3176c0	-0.04332614
5	0x3e5c173f	0.21493243
6	0xbe768758	-0.24075067
7	0xbda3467d	-0.07972429
8	0x3d17445c	0.036930427
9	0xbd0e1a47	-0.03469303
10	0x3e2ce5ef	0.16884588
11	0xbd881898	-0.06645316
12	0xbe8b8daf	-0.27256534
13	0xbb91cee4	-0.004449712
14	0x3dcf3972	0.10118379
15	0xbe057a05	-0.13034828
16	0xbe7be4cf	-0.24599002
17	0xbeacf1d7	-0.3377826
18	0xbe933892	-0.28754097
19	0xbebe86a7	-0.37212107
20	0xbe82033b	-0.2539309
21	0xbe8fc590	-0.28080416
22	0xbe18a2a8	-0.14905798
23	0xbe1e58e4	-0.15463597
24	0x3db02968	0.086016476
25	0x3dea9d9d	0.114558436
26	0x3e1327c3	0.14370637
27	0xbce5dde1	-0.028059902
28	0xbdd06bce	-0.10176812
29	0x3dcdd325	0.10050038
30	0x3de5a475	0.11213008
31	0xbe1ebd59	-0.15501918
32	0x3d8bb00f	0.0682069
33	0x3e5b0f5d	0.2139258
34	0xbe8e3b89	-0.27779797
35	0x3e845317	0.25844643

bias_hh_l0 f4 [36]
0	0xbe84d85d	-0.25946322
1	0x3da6ff5a	0.08154173
2	0xbe51f5c4	-0.20503908
3	0xbdd5a693	-0.10432162
4	0xbe6469cd	-0.22305985
5	0xbe91dbb2	-0.28487927
6	0xbe6d627a	-0.23182097
7	0xbdee552b	-0.11637338
8	0x3cd403e0	0.025880754
9	0xbc7503f9	-0.01495456
10	0x3e745f4d	0.2386448
11	0x3e8513d1	0.2599168
12	0xbe9cc64f	-0.30620047
13	0xbdc46056	-0.09588687
14	0x3d9222fa	0.071355775
15	0x3e325b8b	0.17417733
16	0xbead2e52	-0.33824402
17	0x3c593bbc	0.013258871
18	0x3c69056c	0.014222484
19	0xbe228676	-0.15871605
20	0x3dabe95d	0.0839412
21	0x3dd3b35a	0.10336943
22	0xbe4e7a40	-0.20163822
23	0x3d75b586	0.059987567
24	0x3cc35342	0.023843411
25	0x3e8785d7	0.264693
26	0xbddcca40	-0.107807636
27	0xbe8f4bf2	-0.2798763
28	0x3c8f4bd8	0.01749222
29	0xbe5f8a49	-0.21830095
30	0x3e2e7304	0.17036062
31	0xbe80b382	-0.25136954
32	0x3ded4106	0.11584668
33	0x3dd755bd	0.105144
34	0x3e8cd0df	0.27503106
35	0x3e60ecb2	0.21965292

weight f4 [12, 24]
0	0x3e150b7c	0.14555162
1	0x3e2502e5	0.16114385
2	0x3ed64ca5	0.4185535
3	0xbf3f8406	-0.74810827
4	0x3e081efe	0.13293073
5	0x3cd0f124	0.02550561
6	0x3e0fa3a1	0.14027263
7	0x3ea50bd0	0.32235575
8	0xbed22793	-0.41045818
9	0xbe799084	-0.24371535
10	0x3ec5284b	0.38507304
11	0x3e336977	0.175207
12	0x3f7005c7	0.93758816
13	0x3d284143	0.041077863
14	0xbdbf9ba3	-0.09355857
15	0x3e1a9c9d	0.15098806
16	0xbdcbdeab	-0.0995458
17	0x3ecd96ea	0.401542
18	0x3ec6dc5e	0.38840002
19	0x3e156525	0.14589365
20	0xbdd6b739	-0.10484166
21	0xbeda30b5	-0.42615286
22	0x3f0647a1	0.5245305
23	0xbe677e76	-0.22606835
24	0xbccd49de	-0.025059637
25	0x3c7a60ed	0.015281898
26	0x3eca0ed4	0.39464438
27	0x3f38a7f3	0.7213127
28	0x3e8bcb68	0.27303624
29	0xbe3418c0	-0.17587566
30	0xbe1caa4e	-0.15299341
31	0xbec5aa50	-0.386065
32	0xbdc32910	-0.095293164
33	0x3e12f1de	0.14350078
34	0x3dc4e54c	0.096140474
35	0x3e28c841	0.16482641
36	0x3f3a9e80	0.728981
37	0xbf379347	-0.717091
38	0xbee4517f	-0.44593427
39	0xbe6274db	-0.2211489
40	0x3d8322f6	0.06403153
41	0xbe43364a	-0.19063678
42	0x3e9f8367	0.3115494
43	0x3d8ef875	0.06980983
44	0x3e8a1195	0.2696654
45	0xbe4b4c63	-0.19853358
46	0x3e549f8d	0.20763989
47	0xbe481167	-0.19537888
48	0x3f01553d	0.5052069
49	0x3e3e4d73	0.18584232
50	0x3d9b392f	0.07579266
51	0xbe375fa9	-0.17907585
52	0x3ae9d4c4	0.0017839898
53	0xbc6dc4e5	-0.014512275
54	0x3e9fd09c	0.31213844
55	0xbd2999ce	-0.041406445
56	0x3dbd7ab1	0.09251917
57	0x3e6f637f	0.23377798
58	0x3dd9214b	0.10602053
59	0xbe22a323	-0.15882544
60	0xbf48de8a	-0.7846457
61	0xbdbd7969	-0.09251673
62	0x3ed6f22d	0.4198164
63	0xbe1a3daa	-0.15062585
64	0x3e1dc85b	0.15408461
65	0x3dbdadc5	0.092616595
66	0xbe83622a	-0.2566083
67	0xbebd98ee	-0.3703074
68	0xbdada7ec	-0.08479294
69	0x3f4f346a	0.8093935
70	0xbeb90532	-0.36136776
71	0x3cf4a612	0.029864345
72	0xbdb47e69	-0.08813173
73	0xbd064185	-0.032777328
74	0x3e4986d1	0.19680335
75	0x3e363667	0.1779419
76	0x3eaa1774	0.33221018
77	0xbe84a909	-0.25910214
78	0x3e3f3a33	0.18674545
79	0x3f0b74b0	0.54474926
80	0x3f1c8051	0.61133295
81	0x3d0fe055	0.03512605
82	0xbeadc163	-0.33936605
83	0xbe662a4a	-0.2247707
84	0xbf2b133c	-0.66826224
85	0x3f38d66c	0.7220218
86	0x3eeb9396	0.46011037
87	0x3cf70e84	0.030158289
88	0xbe11ea1e	-0.14249465
89	0x3f0db77d	0.55358106
90	0x3e0037db	0.12521307
91	0x3de8a17c	0.11358926
92	0x3b71d29d	0.0036899217
93	0xbe7d3076	-0.24725518
94	0xbeb5733e	-0.35439485
95	0x3ee72993	0.45148906
96	0xbf22eb18	-0.63639975
97	0x3df2b2ec	0.11850533
98	0xbe250276	-0.1611422
99	0x3dd0fb3b	0.102041684
100	0xbf0937f5	-0.5360101
101	0xbca0e65c	-0.019641094
102	0xbde59fab	-0.11212095
103	0xbcfd6d08	-0.03093578
104	0xbe3953b8	-0.18098342
105	0x3ea9e2e7	0.33180925
106	0xbcbc4713	-0.02298311
107	0xbe27e9fe	-0.16397855
108	0x3f2e668c	0.68125224
109	0xbc8e03ab	-0.017335733
110	0x3ef15dd8	0.4714191
111	0xbe1b0a01	-0.15140535
112	0x3de9df04	0.1141949
113	0x3f1bf34c	0.60918117
114	0xbe209c4d	-0.15684624
115	0x3ea51621	0.32243446
116	0xbca0c096	-0.019623082
117	0xbe1c3a54	-0.15256625
118	0x3e150432	0.14552382
119	0x3da7171a	0.08158703
120	0xbe962703	-0.2932664
121	0xbe1d7c55	-0.1537946
122	0x3ebb0a5a	0.36531335
123	0x3e91dd34	0.28489077
124	0xbddc4534	-0.10755387
125	0xbea792ed	-0.32729283
126	0x3e8b6c65	0.27231136
127	0xbd745de2	-0.059659846
128	0x3e0264bf	0.12733744
129	0xbea251e8	-0.31703115
130	0x3e144b3f	0.14481829
131	0x3e6c2c1a	0.23063698
132	0x3f526010	0.8217783
133	0xbd179fad	-0.037017513
134	0x3e23e44f	0.16005062
135	0xbe7edcb2	-0.24888876
136	0xbe1d1253	-0.15339021
137	0x3e71e99f	0.23624276
138	0xbe8d6ceb	-0.2762216
139	0x3dae0113	0.08496299
140	0xbe174cd0	-0.14775395
141	0xbd70b50b	-0.058766406
142	0x3f3468d4	0.70472455
143	0xbdfc75aa	-0.1232713
144	0x3f0adb88	0.5424123
145	0xbe4f54df	-0.2024722
146	0xbed94df2	-0.4244228
147	0xbeed1cad	-0.4631094
148	0xbdf78ffc	-0.1208801
149	0x3e37c77a	0.17947188
150	0x3e016cf6	0.12639222
151	0x3f00203a	0.50049174
152	0xbd381d7d	-0.044949997
153	0x3e789103	0.24274068
154	0x3ead28bc	0.3382014
155	0xbe22bbd6	-0.15891966
156	0xbe8fceab	-0.28087363
157	0x3e6fdebc	0.2342481
158	0x3e9ef72a	0.31047946
159	0xbf442a29	-0.7662683
160	0x3dc25c6d	0.09490285
161	0x3d06699f	0.032815572
162	0xbf44d97b	-0.7689435
163	0x3dc763c9	0.097358294
164	0xbdaf3165	-0.08554343
165	0xbe7b5374	-0.24543554
166	0x3ef95685	0.48698822
167	0x3e5f646b	0.2181565
168	0x3de57236	0.11203425
169	0xbaec8dc5	-0.0018047622
170	0xbe0127be	-0.12612817
171	0xbde62444	-0.11237386
172	0xbe95305a	-0.29138452
173	0xbde48447	-0.111580424
174	0xbdba647a	-0.09101196
175	0x3d45d36e	0.04829734
176	0xbe843a61	-0.2582579
177	0x3e5ce461	0.21571495
178	0xbe3dfafd	-0.18552776
179	0xbcb939e8	-0.02261062
180	0x3ea834e3	0.3285285
181	0x3d3cadf1	0.04606432
182	0x3edae1da	0.42750436
183	0x3f24668d	0.6421898
184	0x3ed48d97	0.41514274
185	0x3e591037	0.21197592
186	0xbcce456a	-0.025179584
187	0xbef2b4ec	-0.47403657
188	0x3d9a352f	0.07529675
189	0x3ec06f9c	0.3758515
190	0xbecac377	-0.39602253
191	0xbe8deda4	-0.27720368
192	0xbe2a8d69	-0.16655506
193	0xbe04aefd	-0.12957378
194	0xbe2786f2	-0.16360071
195	0x3c29bb29	0.010359564
196	0xbe23ea61	-0.16007377
197	0x3c6bdcba	0.014395887
198	0xbe03d172	-0.12872866
199	0x3ea8d0be	0.32971758
200	0x3e636b90	0.22209
201	0xbeda32df	-0.42616937
202	0xbeac27a3	-0.3362399
203	0xbe75118c	-0.23932475
204	0xbebe477a	-0.37163907
205	0x3d448a5b	0.04798351
206	0x3f320edc	0.69553924
207	0xbe5a9084	-0.21344191
208	0x3f148c0e	0.58026206
209	0x3ef2b068	0.47400212
210	0x3db8b340	0.09018564
211	0x3ef8250f	0.48465773
212	0x3e108740	0.14114094
213	0x3eb8dd5f	0.36106393
214	0xbeab1af0	-0.3341899
215	0x3ec5bef3	0.38622245
216	0x3e765736	0.24056706
217	0xbd935965	-0.07194785
218	0x3ee50c37	0.44735882
219	0x3e55bbd8	0.20872438
220	0xbd90523c	-0.07046935
221	0xbf0e851f	-0.55671877
222	0xbf0e4f36	-0.55589616
223	0x3dac7b8c	0.08422002
224	0xbe263074	-0.16229421
225	0x3e040997	0.12894283
226	0x3f1580ec	0.58399844
227	0x3e658839	0.22415246
228	0x3e8e956c	0.27848375
229	0x3df5e794	0.12007061
230	0x3d1f98bc	0.03896402
231	0x3f09c291	0.5381251
232	0x3d875e95	0.06609837
233	0x3e23f7eb	0.16012542
234	0x3e41f676	0.18941674
235	0xbf2a4ab3	-0.6652023
236	0xbe01b768	-0.1266762
237	0x3e13b419	0.1442417
238	0xbda61237	-0.08108943
239	0x3dd51f43	0.10406353
240	0xbe3de771	-0.18545319
241	0xbe9b675f	-0.30352303
242	0xbec5fda0	-0.38670063
243	0x3ef7189f	0.48260972
244	0xbf1dd26a	-0.6164919
245	0x3edb3b82	0.42818838
246	0xbe7927be	-0.24331567
247	0xbc9ce79b	-0.019153407
248	0x3f75b439	0.9597812
249	0x3e8e3807	0.2777712
250	0xbf430a1d	-0.76187307
251	0x3ec3ec2f	0.3826613
252	0x3e308e32	0.17241743
253	0xbeaa5617	-0.33268806
254	0xbe253d02	-0.16136554
255	0x3e398c5e	0.18119952

bias f4 [12]
0	0x3df7983e	0.12089585
1	0x3e2531ed	0.16132326
2	0xbdca6b5d	-0.09883759
3	0x3cc29e66	0.02375717
4	0xbe49bd96	-0.19701228
5	0x3dffc9e2	0.12489678
6	0xbcfbf936	-0.030758481
7	0xbc8a6b00	-0.016896725
8	0xbda3f20e	-0.08005153
9	0x3de7c827	0.11317473
10	0xbd8e3a38	-0.06944698
11	0xbda57751	-0.080793984

weight f4 [1, 24]
0	0x3e1c0900	0.15237808
1	0xbe9b7196	-0.30360097
2	0xbdf8c206	-0.12146382
3	0xbee8870e	-0.4541554
4	0x3f139a3f	0.57657236
5	0xbeed3621	-0.4633036
6	0xbf1f13f6	-0.6213983
7	0xbece95f7	-0.4034879
8	0x3e41dcee	0.18931934
9	0x3e699f76	0.22814736
10	0x3f538ce5	0.82636863
11	0x3d68a9e0	0.05680263
12	0x3f6d8b1c	0.9279039
13	0xbeb20f5a	-0.34777337
14	0x3de46d8f	0.11153709
15	0x3ddd7a2a	0.108143166
16	0x3e93c3f8	0.2886045
17	0x3e1a033a	0.15040293
18	0x3e0c0583	0.13673978
19	0x3ed53334	0.41640627
20	0xbe42d112	-0.19025066
21	0xbdbcb643	-0.09214451
22	0x3f2c9dcd	0.67428285
23	0xbd331761	-0.043723468
